Lab5_口罩佩戴检测/temp_new.pth (torch, 18653 bytes, 12 tensors)

mobilebone.0.0.weight f4 [32, 3, 3, 3]
00000000: bfb6 363d fd8e ec3c 5be3 bebd 49ec 453c
00000010: 92e5 863e 5387 033b a1f2 b73d 8383 c63d
00000020: 8fee 14bd 809e acbd fe4d 163e c056 22be
00000030: c86b b83d c018 c33d df7c 913c 26c1 8bbd
00000040: c77c 74bd bf37 503e e03d ca3d 22e3 32bd
00000050: bf41 bdbd 36c8 463b 5f34 9abc 610f 27bc
00000060: ebfe c7bd 3fa8 d5bc 9615 25bd d993 d53d
00000070: be11 4cbd 4b0f c0bd 5a7d 39be c9c4 4bbe
00000080: f0af 093d 7b00 f9bd 6c7c 3d3b c081 b23c
00000090: 911e 313d 86cc 793d 5674 b33c b71d a5b9
000000a0: ae64 6c3d 5484 d53c d3f4 813d fc3a 9c3d
000000b0: 6ffa 183e 08a2 ce3c f336 713b 5b10 8e3d
000000c0: 8724 6fbd f5d2 243d 66d5 7eba c393 b83d
000000d0: a190 eebd 25a9 ffbb 5def 813d 9bf8 9a3d
000000e0: fbcb b53d 5128 223e 5759 8f3d c73f 88bd
000000f0: 7ea6 cebd ed09 243d 8d56 083d d180 63bc
00000100: 7288 df3d 50e8 0dbd afbe 8a3d 852e 19be
00000110: 482b 28bd 15c6 953d f24f c7bc 86b9 3d3e
00000120: 958d 2c3d 44de babd ab34 61bd 8aee 9bbc
00000130: 1cc9 3d3d 6ab1 22be ebc3 07be 1dc8 0ebe
00000140: 4279 b9bd 7e3b f4bc d162 d5bd 3d2b 313d
00000150: efcc ed3d ff89 d93c 47a0 e43d e66c 5c3b
00000160: 498c c63d 2180 5e3d 95b1 e2bb 9fbc 73bb
00000170: a955 fd3d 82a9 99bc 9a80 293c 5901 d03d
00000180: aec1 11bd 0d29 f2bc 8662 e73d ebac 2f3d
00000190: ea58 9a3d 30d8 8cbd ab6b 23bc 0c36 413e
000001a0: 5ce8 05be 200b dcbc f8a0 b63d 328a 36bc
000001b0: 6ce2 0ebe 52a9 953d db49 2d3d 9e95 c63d
000001c0: cc8c e7bd 444a 8fbc 170a 12bd ce90 a9bd
000001d0: 534b 9e3d 8e85 1c3d eb9e 9abd ebf0 263e
000001e0: 2201 723e 9137 24bd 6412 47bd d3c5 a43c
000001f0: 6820 de3c 3c11 7b3d 2573 083e f990 00bd
00000200: 8848 fc3d 25a1 ffbc 77ed d93d 0e7c a6bd
00000210: e341 25be 0863 bf3c 763f 17be 28de 45bd
00000220: 6389 f63c 8174 383d b771 0fbd e11b e53d
00000230: 7d23 093d f0bc b13d 07ef af3d ccf1 1e3e
00000240: 97c1 02be 5ed9 193d 7ca9 d83c 340c 653c
00000250: be97 cf3a bccf 8e3d f799 3c3c 6ab6 3ebe
00000260: 844f 2e3b afa0 d23b a233 0a3e 6b73 a4bd
00000270: 75ba 2fbe 69eb 0a3e 795b afbc 6b10 6fbd
00000280: 0aab 513e 2b44 3e3d c2fe fa3d 3fd2 913d
00000290: 0492 d73d 50ae 023d c92b 6bbc 9bca 223e
000002a0: 4346 ec3d e5f9 23bd 8eab 603d 6bd9 723b
000002b0: 7882 f93c 4657 6cbd 8450 353d 126f c6bb
000002c0: 8fb7 60bd 57d1 e2bd 7ba2 663c 8ee7 c23d
000002d0: 9ed3 36bc 115a 1dbe 514f d9bd 884d 17bd
000002e0: f8ad 653d 9e5c b2bd e774 1f3e e182 fd3d
000002f0: 266b 09be 874a 7bbb 378f 143d 557e 1e3d
00000300: 87af 223d a848 9c3b f5a3 28bd fda0 b6bd
00000310: 5efa 023d 6373 a63b 15c9 b4bd 41ff fb3d
00000320: e027 95bd 1f52 103d 6725 7dbd 0339 b1bd
00000330: f93b 5bbb bd16 e63d f797 bcbc 91e5 63be
00000340: cc07 71be e601 a4bc 75c6 8cbd 4599 afbc
00000350: 4c73 e9bd a8f1 043c bc18 7e3d 908a d5bc
00000360: 32ec 49bd f434 42bd 63f8 9abd 1023 c2bc
00000370: 5c37 593e 90c8 27bd 3772 923d 5d0d 453e
00000380: 8bfb 0d3e ac92 a13d 7b58 81bd afb9 5a3d
00000390: 276a 993d f7dc 6dbd dd35 eebc 29ea 8a3b
000003a0: 93ec 283d b57f a73c db60 363e 7903 79bd
000003b0: f64b 963b 09a9 10bd 6df8 e5bd 390a c8bd
000003c0: ef51 a43d 403e 89bd 9fc5 2ebc ef43 aebb
000003d0: b09e 8cbd 9462 53bd ef4b f33c 172a 653d
000003e0: e3fc 95bb 423a b03d e38c 9b3d 078f 033e
000003f0: e4de 073d 5278 0dbd 1550 a2bc c9f5 05be
0.044607874 0.028876776 -0.09320708 0.012080261 0.26347023 0.0020069673 0.08981825 0.096930526
-0.03636032 -0.08428669 0.14678189 -0.15853405 0.09004933 0.09526205 0.017759738 -0.068239495
-0.05968931 0.20333765 0.09875083 -0.043673642 -0.09241056 0.0030331737 -0.0188238 -0.010196538
-0.097654186 -0.026081203 -0.04030379 0.1042859 -0.049821608 -0.09377917 -0.18114224 -0.19899286
0.033615053 -0.12158295 0.0028913273 0.021790385 0.04324204 0.060986064 0.02190606 -0.00031493392
0.057713203 0.026064076 0.06345525 0.07628438 0.14939283 0.025223747 0.0036806434 0.06936713
-0.058384445 0.040240247 -0.000972113 0.09012558 -0.116486795 -0.007802146 0.06344483 0.07566949
0.08876797 0.15835692 0.06999462 -0.066527896 -0.100903496 0.04004853 0.033285666 -0.013885693
0.10914697 -0.03464538 0.06774651 -0.14959152 -0.0410569 0.07313172 -0.024330113 0.18527803
0.04212721 -0.09124425 -0.05498187 -0.019034643 0.04633437 -0.1588799 -0.1325833 -0.13943525
-0.09056331 -0.029813524 -0.10419238 0.043254126 0.116113536 0.02655506 0.11163383 0.0033634244
0.09694726 0.054321412 -0.006918142 -0.0037191284 0.12369854 -0.018757585 0.010345602 0.10156507
-0.035585098 -0.02956059 0.11298089 0.042889517 0.0753649 -0.06877172 -0.0099744005 0.18868273
-0.1307692 -0.026860774 0.08917421 -0.011141347 -0.1395356 0.07307686 0.042306762 0.09696506
-0.11306152 -0.017491467 -0.035654154 -0.082795724 0.07729211 0.038213305 -0.075498424 0.1630284
0.23633245 -0.040092055 -0.048601523 0.020113861 0.027115062 0.061295733 0.13325174 -0.031388257
0.12318522 -0.03120477 0.10640996 -0.0812913 -0.16138415 0.023362651 -0.14770302 -0.048307568
0.030094808 0.04503298 -0.035020556 0.11186958 0.03348111 0.08678615 0.08590513 0.15521926
-0.12769161 0.037560813 0.026448004 0.01397996 0.0015838069 0.06973216 0.011511317 -0.18624273
0.0026597688 0.0064278464 0.13496259 -0.08029827 -0.17160971 0.13566364 -0.021405922 -0.058365267
0.20475402 0.04645173 0.122556224 0.071201794 0.10525897 0.03190452 -0.014353701 0.158976
0.11536839 -0.04003324 0.054851107 0.003705586 0.03045772 -0.057700418 0.04426624 -0.006055721
-0.054862555 -0.11075085 0.014076824 0.09516822 -0.011158852 -0.15366389 -0.106108315 -0.036939174
0.056074113 -0.087090716 0.15571938 0.12378479 -0.1341978 -0.0038343982 0.036269393 0.0386947
0.039718177 0.0047694035 -0.041171987 -0.08917425 0.03197705 0.005079673 -0.08827416 0.12304545
-0.07282996 0.035234567 -0.061803248 -0.08653452 -0.0033452495 0.11234806 -0.023021681 -0.22255541
-0.2353813 -0.020020436 -0.0687379 -0.02143539 -0.11398944 0.008114256 0.062035307 -0.026067048
-0.04929752 -0.04741378 -0.07566907 -0.02369836 0.21212524 -0.040962756 0.07150691 0.19243379
0.13865487 0.078893036 -0.063157044 0.053399738 0.0749095 -0.058072057 -0.029078418 0.00423934
0.04124124 0.020446638 0.17810385 -0.060794327 0.004586692 -0.035317454 -0.11229024 -0.09767575
0.0802344 -0.06701326 -0.010667234 -0.005318157 -0.06866205 -0.051607683 0.029699294 0.055948343
-0.0045772656 0.08604862 0.075952314 0.1284753 0.03317155 -0.034538575 -0.019813577 -0.13082041

mobilebone.0.1.weight f4 [32]
00000000: 4cc1 6d3f d7a2 813f e81c 823f 1b58 723f
00000010: a675 883f a560 6d3f 1d80 7b3f 7d80 813f
00000020: 8c3c 7d3f a03e 6d3f fa81 873f c181 793f
00000030: dcfe 7e3f c741 7d3f bbb1 803f 2b7b 7d3f
00000040: b884 6b3f 8ce3 843f 8df5 7d3f 45fa 803f
00000050: b338 883f 2723 723f 679c 843f 5d6a 893f
00000060: 8cb6 7a3f c0c8 7b3f 3a0b 893f f661 713f
00000070: 4abb 7f3f 0250 833f 81fa 673f bab1 6b3f
0.9287307 1.012782 1.0165071 0.9466569 1.0660903 0.9272559 0.9824236 1.0117337
0.9892051 0.92673683 1.0586541 0.97463614 0.99607635 0.98928493 1.0054239 0.99016064
0.9199939 1.0381942 0.99202806 1.0076376 1.0642303 0.9458489 1.036023 1.0735584
0.97934794 0.98353195 1.0706551 0.942901 0.99895155 1.0258791 0.90616614 0.92068064

mobilebone.0.1.bias f4 [32]
00000000: 4219 6a3d 0302 0abe 4f15 5a3d 541a 42bd
00000010: cd5b 8f3d e06e bdbd f393 9b3d 4855 463d
00000020: 899e bc3d bc58 41be 91a1 f7bd 7cb3 eb3c
00000030: cc10 10be 2c6e 12bd 14d4 223d 0bbb 823d
00000040: ac34 2ebe 0f01 b5bd e01b 2ebd 64b9 dfbd
00000050: 0b8c a9bd eba6 72bd 3c53 f83d e59b a9bd
00000060: 6fd9 37be b901 3fbe a9d5 f53d 77bc 993c
00000070: d930 a93c e8ca 803d 868f 1cbe 3dc9 cfbc
0.057152994 -0.1347733 0.053242978 -0.04738839 0.069999315 -0.09249663 0.075965784 0.048421174
0.09209926 -0.18881506 -0.12091363 0.028772108 -0.14068907 -0.0357496 0.039753035 0.06383332
-0.1701228 -0.088380925 -0.042507052 -0.10924032 -0.08278664 -0.059241217 0.12125251 -0.08281688
-0.17954038 -0.18653001 0.12003643 0.018766625 0.020653175 0.06288701 -0.15289125 -0.025364513

mobilebone.0.1.running_mean f4 [32]
00000000: 7633 4c3e a713 d1bc 6443 2fbc d70f b73e
00000010: 77f3 a03d f951 883e bc11 753e c2fa 9bbe
00000020: 9d61 613e 6dbb d13c 86a0 11bd 2b37 5d3e
00000030: dc74 823e 4c0e 84be 9b45 45be 78a6 683e
00000040: 1b60 393e 4ec0 b83d c534 663e 7411 60bc
00000050: c211 873d 294e e9bd f431 25bf 2e8d 933d
00000060: 22a8 f43d f675 213e 3ea2 a8bd 5504 593e
00000070: e9aa 593e 1d62 14be 0e6f 55be 0f7b ce3e
0.19941506 -0.025522066 -0.0106972195 0.35754272 0.07858937 0.2662504 0.23932546 -0.3046475
0.22009893 0.025602067 -0.035553478 0.21603076 0.25479782 -0.25792158 -0.19264834 0.22719753
0.18103068 0.09021054 0.22481067 -0.013676036 0.06595184 -0.11391861 -0.6452935 0.07204662
0.11946131 0.15767655 -0.0823407 0.21193059 0.21256603 -0.14490552 -0.20843145 0.4032826

mobilebone.0.1.running_var f4 [32]
00000000: b72c 6a3c 4145 163b 798f 823b c1bc 3a3d
00000010: 0231 6b3b 2d42 c73c 12bb a03c 3283 203d
00000020: e275 8b3c f72c a23a 5919 8e3b 09e5 843c
00000030: af89 ca3c 3904 c03c b4e2 4e3c 2538 913c
00000040: 41b4 333c 4d1e bd3b 1380 8f3c 3eb0 843b
00000050: 0deb 693b 3292 923b e8c7 283e 1bd4 913b
00000060: 85b4 303c f80b 0e3c eaf7 9a3b 6288 763c
00000070: 170f 823c 0cc3 f33b d36a a73c 93bd 633d
0.014292887 0.0022929462 0.0039843884 0.045590166 0.0035887365 0.024323547 0.019620452 0.039187618
0.017023984 0.001237302 0.004336518 0.016222494 0.024723856 0.023439514 0.012627292 0.017726967
0.010968269 0.0057714344 0.017517125 0.00404933 0.003569308 0.0044729942 0.16482508 0.004450334
0.010785227 0.008669846 0.0047292607 0.015047165 0.015876336 0.007439023 0.02043668 0.055600714

mobilebone.1.0.weight f4 [64, 32, 1, 1]
00000000: 07cd 603d 0450 853e a317 743d 498e 7ebe
00000010: e926 0fbe 8ce6 03be c71c eebd 7d79 fa3c
00000020: 42e0 60bc a8e9 3abd 0cf7 bbbd 4d22 a1bd
00000030: 42b3 0c3d b426 76bc 05d7 3bbe ebfc 8f3d
00000040: c697 953d 35c0 ea3d 5623 8b3e c4ad d63d
00000050: c2f4 d53d e5b8 1f3e cb0a 233e eb39 b8bd
00000060: a79e a43e 1e77 1c3e 07a0 913d a6d0 9a3e
00000070: 1c77 13bd cfd5 33be d7aa 763d 1332 103e
00000080: becf 1d3e 16d8 8e3e 14db 853e f887 3d3c
00000090: 95ed 493d 1899 04be fdc7 48be 5b11 2cbe
000000a0: 623b 763d d653 353e 4c82 213e 6be0 97be
000000b0: e5d1 02be cc38 973c 640b c73e 87dc 2f3e
000000c0: 223f ddbd 544a 8f3c 5bc4 283e 3e1e 07be
000000d0: 4f6d 40ba 9c83 0c3d 8e61 dabd cb51 983e
000000e0: 812a e03b 9003 70be cf6e a33e 33f1 183d
000000f0: f87e bbbe 57e2 22bc 20e9 073d 12c9 bb3e
00000100: e318 e23d f3b2 2f3e 91a1 8b3d 2e7e e83d
00000110: b1a0 503e 0d08 92be f387 053e fbd5 da3d
00000120: 58b9 fa3d ea21 203e 4a2e b5bd 22c6 973d
00000130: 2e5d 323d b84e 4abe 20f0 6d3e 9275 62be
00000140: 11f0 b3bd fa37 243d be9e 15be dcc9 613e
00000150: b94f 823e 58c7 c1bd 7319 183e adae 76bd
00000160: 7c06 393e 90f9 33be 9459 50be 06cf 9bbc
00000170: 9291 58be 1b7d 8fbe 386e 9d3e b20e 063e
00000180: 9115 4abe acfa 163e b3fd 00be 100f 063e
00000190: b8b0 613d 5a06 2a3d 48fb 1bbe c0f1 07be
000001a0: 78a0 8b3e dcc7 1abe 37dd 97be 298a 343d
000001b0: 0ec9 53bd d0e2 673d bfa2 cbbc 4dfb 383e
000001c0: 9e5f 99be 9ac8 523d 80b1 483e 0ec8 59be
000001d0: 3a10 653d 0826 403e 1189 88be 6e45 ae3c
000001e0: 92e2 07bc 3cf5 273e 8e25 50bd c6fe 17be
000001f0: 5312 02bd 8eef 48bb f62a 373e 3039 62be
00000200: 368c 363e 2067 073f bfd7 813d 84b5 9ab9
00000210: 0525 323d 4f27 cabd 6077 013d 0311 86be
00000220: 3f7a 763e ca50 973d 3ec8 cebd 0106 4bbd
00000230: 0d4d 60bd 13f8 54bd c615 9c3d 17c9 efbc
00000240: 247b e7bd 930a 5b3e 0707 503e 1b62 2c3c
00000250: 7ea9 313e 6ddd 243e a012 2b3e d4e3 5c3d
00000260: 5c25 5e3e 1b59 bbbd 17b7 003e c3ee c8be
00000270: 0ee3 f1bd 89dc dbbe 995d dd3b d56f 78be
00000280: 3042 10bd b405 823d 66e0 b13e 490f 86be
00000290: 67de 94bd 1b2b f33d be79 d63c 9883 a5bc
000002a0: 022e c8be 4d8e 8abe 9efa e0bc 4fe2 86be
000002b0: 1bc4 aa3e 4dbc eabe 6e94 303d 3765 55be
000002c0: 778a 453e 72de 233e 7897 12bd dfe5 473e
000002d0: 274b 173e 9d65 0fbd 4620 933d b479 ba3e
000002e0: 4600 e03c 5318 103e 9d31 c53d aef5 dabd
000002f0: a199 213e 2697 6f3e 524a ebbc db0f 573e
00000300: 3b88 16be f049 09bf 4720 35be e700 dbbe
00000310: d137 113d f1b8 b93c 01c1 1a3e 9b1a 6ebe
00000320: 28b1 bcbd db23 21bd dbd2 a93e eeef 02be
00000330: 6c34 59bd 98fb 94bc 3938 253e 0654 433d
00000340: 67a9 153d 769b 90be cd7e 69bd c2fe abbe
00000350: e00c d53d 40c0 8ebe 2a03 73be ccf9 70be
00000360: 6496 333e 42da a9bb 4552 e0bd 4640 cbbd
00000370: 7579 733d b7a8 babe 4823 5ebd 344c a13d
00000380: 5a67 373d 3f2b 82bd 1df3 873e d81a 8d3e
00000390: a0a6 7dbe 7583 a9be 21e6 ca3e a623 9fbe
000003a0: db18 d7bd 8ce6 afbb 82b7 ecbd 51ad a3be
000003b0: 5f2f 15be 7c9a a5bd 66b8 c7bd 148f 6cbe
000003c0: 9bb5 9fbe 1fbc 3abe 194a 173e a0e7 52be
000003d0: a455 d73c fbe5 31be 98dc 1b3d eefc 66bc
000003e0: 1604 19bd 7eda 93bc 61ae c1bb 8577 86bd
000003f0: 009c 49bd 2351 093d 6abe 7f3d 5fa6 2d3e
0.05488303 0.2603761 0.059592854 -0.24858965 -0.13979687 -0.12880915 -0.116265826 0.030575508
-0.013725342 -0.04563299 -0.0917798 -0.078678705 0.03435064 -0.015023876 -0.18343742 0.07030662
0.07304339 0.11462442 0.27175397 0.10482362 0.104470745 0.15597875 0.15922086 -0.08995422
0.32152292 0.15279815 0.07110601 0.3023731 -0.036002263 -0.1756203 0.06022152 0.14081602
0.15411279 0.27899235 0.26143706 0.011568062 0.04929884 -0.12949026 -0.1960754 -0.16803496
0.060115226 0.17707762 0.1577236 -0.29663405 -0.12775381 0.0184597 0.38875878 0.17173968
-0.10803057 0.017491497 0.16481154 -0.1319513 -0.0007340507 0.0343052 -0.10663138 0.29749903
0.0068410044 -0.23438859 0.31920478 0.0373394 -0.36620307 -0.009941659 0.03318131 0.36676842
0.11039903 0.17158107 0.06817926 0.11352192 0.20373799 -0.28521767 0.13040142 0.10685345
0.12242383 0.15637937 -0.088467196 0.07410838 0.043545894 -0.19756591 0.23236132 -0.22115162
-0.087860234 0.040092446 -0.14611337 0.2204966 0.2545145 -0.0946185 0.14853458 -0.060225178
0.1806888 -0.1757567 -0.20346671 -0.019019615 -0.2114928 -0.28025135 0.30748153 0.13091543
-0.1973479 0.14744061 -0.12596779 0.13091683 0.055100173 0.041509964 -0.15232575 -0.13275814
0.27270865 -0.15115303 -0.2966096 0.044077072 -0.051705413 0.05661279 -0.024857877 0.18064614
-0.29955763 0.05146084 0.19598961 -0.21267721 0.055923678 0.18764508 -0.26667073 0.021273341
-0.008293765 0.16402143 -0.050817065 -0.14843282 -0.031755757 -0.0030660364 0.17887482 -0.22092128
0.17826924 0.5289173 0.063399784 -0.0002950841 0.043492336 -0.09870779 0.031607985 -0.26184854
0.2407007 0.07388456 -0.10096787 -0.049566273 -0.05476098 -0.051994395 0.076213405 -0.029270692
-0.11302784 0.21390752 0.2031518 0.010521437 0.17349812 0.16100092 0.16706324 0.05392821
0.21693939 -0.09147855 0.12569843 -0.3924466 -0.11810885 -0.42941692 0.0067555425 -0.2426141
-0.03521937 0.06348744 0.34741515 -0.26183537 -0.072689824 0.11873456 0.026181098 -0.02020435
-0.390976 -0.27061692 -0.027463254 -0.26344535 0.33352742 -0.45846787 0.043110304 -0.20839392
0.19291101 0.16002825 -0.035788983 0.19521283 0.14774762 -0.035009015 0.0718389 0.36420977
0.02734388 0.14071779 0.096286036 -0.10691391 0.15781261 0.23397502 -0.028721962 0.21002142
-0.14700405 -0.53628445 -0.17688094 -0.42774126 0.03545362 0.022671195 0.15112688 -0.23252337
-0.092134774 -0.039340835 0.33168682 -0.12786838 -0.05302851 -0.018186375 0.16134728 0.047687553
0.036538508 -0.28243607 -0.057005692 -0.33592802 0.10402846 -0.2788105 -0.23731676 -0.2353279
0.17537838 -0.005183489 -0.10953192 -0.099243686 0.059442002 -0.36456844 -0.054232866 0.07875863
0.044776298 -0.06355905 0.26552668 0.27559543 -0.24770594 -0.33108106 0.396287 -0.31081885
-0.10502788 -0.0053680595 -0.11558439 -0.31968167 -0.14568852 -0.08086106 -0.09751968 -0.23101455
-0.3119324 -0.18235825 0.1477436 -0.2059617 0.026285954 -0.17372887 0.03805217 -0.014098389
-0.037357412 -0.018048521 -0.00591068 -0.06565765 -0.04922104 0.033524644 0.062437452 0.16957997

mobilebone.1.1.weight f4 [64]
00000000: 5421 843f a09c 803f d5fd 833f 22c5 8c3f
00000010: 5e5b 8b3f 1f78 8a3f c1eb 8a3f a893 823f
00000020: fa63 893f c812 813f 0c90 7e3f 5c2b 883f
00000030: a3b4 823f 0d26 7e3f 09fb 863f c192 8a3f
00000040: c688 7f3f f3a0 773f 0acd 8d3f 1d15 873f
00000050: 0d15 8c3f 9399 813f d1eb 883f a072 8e3f
00000060: 0a01 8a3f 096e 8a3f 6780 843f 5d4a 7d3f
00000070: dcd8 8a3f d93d 853f 053e 8b3f 149f 893f
00000080: 954f 813f 89fd 8e3f d641 8c3f d9b0 833f
00000090: b661 843f 6afc 903f 6551 863f 8326 863f
000000a0: 7a04 843f 3bce 893f 9e3f 853f d257 873f
000000b0: 1a61 8d3f 53ea 8c3f 1022 823f d3c0 873f
000000c0: 914f 8b3f 8878 893f 5adb 843f a3d0 8c3f
000000d0: f570 863f 25aa 893f df25 803f c971 803f
000000e0: ea9b 7d3f 1e42 7d3f 0022 8e3f 6da3 863f
000000f0: e72f 883f b1b3 803f c5b8 8a3f a9d2 863f
1.0322671 1.0047798 1.0311838 1.099766 1.0887258 1.0817908 1.0853196 1.0201311
1.0733635 1.0083857 0.9943855 1.0638232 1.0211376 0.9927681 1.054536 1.0826036
0.99818075 0.96729964 1.1078198 1.0553318 1.0943924 1.0124992 1.0696965 1.1128731
1.0781567 1.081483 1.0351685 0.98941594 1.084743 1.04095 1.0878302 1.0751672
1.0102412 1.1171123 1.0957592 1.0288345 1.0342319 1.1327031 1.049359 1.0480503
1.0313866 1.0766062 1.041004 1.0573676 1.1045258 1.100901 1.0166645 1.060572
1.0883657 1.0739908 1.0379441 1.1001171 1.0503222 1.0755049 1.0011557 1.0034724
0.9906603 0.9892901 1.1104126 1.0518624 1.0639619 1.0054837 1.0837637 1.0533038

mobilebone.1.1.bias f4 [64]
00000000: 42bf 9ebd 9556 843b fed0 5dbd 65e1 bf3d
00000010: c77f 2bbd 4f35 59bd 524f d83d fc83 1b3d
00000020: f1f9 b53d d0e2 0dbc 795e 00bc 07c3 a73d
00000030: 4ffa 5fbd 439c a2bc 5715 b63d a521 4abd
00000040: 7460 9dbd 56fd d7bc 9047 f53c 11f0 923d
00000050: 2dfd e13d 5946 4a3d bc57 1dbd 9b0b ca3d
00000060: 8c85 c33d de4c c93d ef9e 2fbd b666 833b
00000070: 8897 37bd c0d6 893d 67fb 85bd 9bba d03d
00000080: 8840 383d 1f93 f63d ece4 32ba 6c30 0d3d
00000090: 4bfe 403d 8fb0 0f3e 720e 913d 5723 293d
000000a0: 33ad 413d 25b9 84bd 6bbe 753d a062 ccbb
000000b0: 4f71 34bd a2cc 43bd 4a43 2fbd ac02 0dbd
000000c0: cdc0 653c 31e2 da3d cbd5 ca3b 3411 d23d
000000d0: f527 163d b50f 7fbd f0a7 e13c d31a 423c
000000e0: 1090 57bc fe63 8cbb 1840 05bd 063a a03d
000000f0: c17a 84bd 9d85 623d 4dfd b33d 03db a73d
-0.07751323 0.0040386417 -0.05415439 0.093691625 -0.041869905 -0.053029355 0.10562004 0.037967667
0.08885563 -0.008660033 -0.007835024 0.081914954 -0.054682072 -0.019849902 0.08890789 -0.049348492
-0.076844126 -0.026365917 0.02994135 0.07174695 0.110346176 0.049383495 -0.03841375 0.09865495
0.095469564 0.098291144 -0.04287618 0.004010047 -0.044822246 0.067304134 -0.06542092 0.10191842
0.044983417 0.1203978 -0.0006824273 0.034470007 0.047117513 0.14032196 0.07082833 0.04129347
0.047284316 -0.06480626 0.05999605 -0.006237343 -0.044053372 -0.047802575 -0.04278878 -0.034426376
0.014023018 0.10687674 0.006190037 0.102571875 0.0366592 -0.06227084 0.0275459 0.011847216
-0.013156906 -0.004284381 -0.032531828 0.07823567 -0.06468726 0.055303205 0.08788548 0.0819607

mobilebone.1.1.running_mean f4 [64]
00000000: 2418 d03e 3d78 e73e 0791 7e3e 88e3 68be
00000010: 9c64 2b3e 362c 763e 7ee7 8bbf 2a9c 24bf
00000020: e016 a0be 00d4 573e a0cf 103f 504d a5be
00000030: 85b6 1d3f b53a b83e d81c aabe 8894 fe3e
00000040: 3e02 193f 0bbe 54be fa51 e73d 6399 31be
00000050: 142a 24bf b90f bdbe d7f7 cd3e 3330 13bf
00000060: 59fb 13bf 130b 26bf 568d bf3e 9bd1 e1bc
00000070: 7719 913e 951a 1ebf f2f0 f63d b417 53bf
00000080: c21a ef3d 0cef 40bf 9509 ff3d 2def 893e
00000090: dfc6 223f d5a8 37bf 65d3 96be 0b8d b8be
000000a0: eda9 49bf e4fc 603e 6ef8 e2be 5cdf 3a3e
000000b0: 9f60 763d 65ff 9dbc 5da5 103f 4e24 e93d
000000c0: a6d3 303e 8b62 17bf 34c6 833e dcfb 27bf
000000d0: 0dd1 553e bfcf b43e d0c2 66be c1d1 37be
000000e0: 3824 75bf 2308 143d 6729 8b3d 5f0b 19bf
000000f0: e041 493f 1516 193e 76cc e6bd 6018 53bf
0.40643418 0.45208922 0.24860011 -0.22743046 0.16737598 0.24040303 -1.0930021 -0.6430079
-0.31267452 0.21076965 0.5656681 -0.32285547 0.6160663 0.3598229 -0.3322513 0.49722695
0.59769046 -0.2077562 0.11294933 -0.17343669 -0.64126706 -0.36926058 0.4022815 -0.5749542
-0.578054 -0.6486065 0.37412518 -0.027565768 0.2833974 -0.6175931 0.120576754 -0.82458043
0.116750255 -0.75364757 0.124529995 0.2694029 0.63584703 -0.7174199 -0.29458156 -0.36045107
-0.7877491 0.2197147 -0.44330162 0.18249267 0.06015074 -0.01928682 0.56502324 0.11383878
0.17268237 -0.5913474 0.25737154 -0.6561868 0.20880528 0.35314748 -0.22535253 -0.17951109
-0.9575839 0.036140572 0.06795006 -0.59782976 0.7861614 0.1494983 -0.112694666 -0.8245907

mobilebone.1.1.running_var f4 [64]
00000000: 647d 023e 8311 4f3e 2480 173e 96b3 823d
00000010: 76d4 583e b998 873e 512f a63e dc69 863e
00000020: b5a0 323f b41a 8e3e 8c09 4f3e e97a 453e
00000030: 9890 103e ff99 2e3e fa1d 993e c1e6 1a3e
00000040: f506 833e d49a 6f3f bb79 1d3e 980c b33e
00000050: 346d da3e 7c74 cf3e 34ed 253e b66d 033e
00000060: d645 973e 6e45 9f3e c3fa 243e 4d12 413f
00000070: a99d b23d 403c 243f c508 0f3e ce28 133f
00000080: 76a3 803e 0780 803e b598 203e 2ee3 a43e
00000090: 23ff e43e efc1 483e ddf5 ac3e 93c6 1f3e
000000a0: 2570 a73e a550 d23e a616 003e c374 d33e
000000b0: 5086 b73d 4682 cf3e c312 1c3e f8d0 cd3d
000000c0: 62f2 713e 6856 843e 759e e83d a812 d23e
000000d0: 87a3 873d 23f2 193e 0834 ff3e d7ef b43d
000000e0: 2261 8b3f 6da4 013f 3373 943d 6878 963e
000000f0: e79a c13e c95d 263f 7ec8 6e3e ccdc 833e
0.12743145 0.20221524 0.14794976 0.063819095 0.21174797 0.26483706 0.32457975 0.2625264
0.6977647 0.27754748 0.20218486 0.19285168 0.14117658 0.17050932 0.29905683 0.15127088
0.25591245 0.93595624 0.15378468 0.34970546 0.4266144 0.40518558 0.16203767 0.1283482
0.29545468 0.31107658 0.16111283 0.7541855 0.087214775 0.64154434 0.13968189 0.5748414
0.2512471 0.25097677 0.15683253 0.32204574 0.44725904 0.1960523 0.3378133 0.15603094
0.32702747 0.41077152 0.1250864 0.4130002 0.08961165 0.40529078 0.15241532 0.10049623
0.23627618 0.25847173 0.11358348 0.4102986 0.06622987 0.15033774 0.49844384 0.08834808
1.0889018 0.5064152 0.07248535 0.29388738 0.37813494 0.64986855 0.23318669 0.25754392

fc.weight f4 [2, 64]
00000000: e514 083e 8916 e33c 3f77 ecbc 4dca 03bd
00000010: 5bf5 ea3d 4669 2c3e 8939 2dbe d57c 8bbd
00000020: c2d1 1abd 0e1b 80bd de55 bcbc 7886 2fbe
00000030: 284c 2c3d 555c 1ebd 81e1 2dbe 6e92 1e3e
00000040: 2c1b fe3d e80f 953d 87a1 493c 200a 71bd
00000050: b32a 4ebe b866 14be d9ab 223e a765 04bd
00000060: 9745 3cbe 149a 49be 7dab 193e 9f27 8cbd
00000070: 297f 403e 3772 cbbd a1fa ae3d d79c d7bc
00000080: 74ef 0dbe abc7 4abe 001b ce3d 356f 8d3d
00000090: c7f6 0e3d 670d 05be 0db0 433d a06e 04be
000000a0: 078b 02be 601a 303e 32c6 23be 3511 2c3e
000000b0: a6ca 003e e70c 343e b0aa f13d 5fb3 ad3d
000000c0: 21fe ca3d b641 3cbe 4b61 e03c a7fd b2bd
000000d0: 7ae2 2fbe b7ad 073e 3c6b d5bd 0453 6b3d
000000e0: ec85 863d b1ff bfbc 4073 e33d 5a87 18be
000000f0: 62d3 b43d 4a16 01be 8fd9 23be f24e 20be
00000100: 581f e33c 80fc b7bd 3d4d 01be 2f91 523e
00000110: b8d7 90bd b0c1 16be 6172 123e 19f7 133e
00000120: 4634 e63d 063c 07be 58b3 ce3c 2945 c93d
00000130: 92a4 16be d69a c2bd b642 36bd 030a cabd
00000140: d339 6f3d 7c3e cd3d d78f 33be 3f5f 553d
00000150: c70c 043e b999 97bd feef 06be 46cc 4a3e
00000160: 325c ebbc 4899 033c 0048 13be f118 e1bb
00000170: e969 28be 4098 3d3b fd43 98bd b372 053e
00000180: fcd4 94bd 20c0 573d 0c95 d4bd 5575 88bc
00000190: a695 01be d9b8 ac3d f9ac 1b3e a25b 86bc
000001a0: a4c3 023e b911 babd 04bd 083e b7cd dcbd
000001b0: e5f8 46be 1736 2abe ac3f f0bd 822a 3ebd
000001c0: 009f 2fbe 7264 51bd 7dd5 1dbe f00b 263e
000001d0: d7df 613d 9f64 b7bd 6915 29bd f0c0 cc3d
000001e0: 0890 49bd 11c6 a73d 37d6 1fbe 04c4 debc
000001f0: 0aea 91bd f43b 81bd 204d 3f3e e72d 0f3a
0.1328922 0.027720707 -0.028865455 -0.03217535 0.11472579 0.16837034 -0.16916479 -0.06810919
-0.037797697 -0.0625516 -0.022990163 -0.1714114 0.042064816 -0.038662273 -0.16980554 0.15485546
0.124075264 0.072784245 0.0123065775 -0.058847547 -0.20133476 -0.14492309 0.15885867 -0.032323506
-0.18385921 -0.19687682 0.15006824 -0.068434946 0.18798508 -0.09933894 0.085438974 -0.026319904
-0.13860875 -0.1980273 0.100637436 0.06905977 0.034903314 -0.12993394 0.047775317 -0.12932825
-0.12748347 0.17197561 -0.15993574 0.16803439 0.12577304 0.17583047 0.11800134 0.08481478
0.099117525 -0.18384442 0.027390143 -0.087397866 -0.17176238 0.1324986 -0.10420844 0.057452217
0.06568512 -0.023437353 0.111059666 -0.14895383 0.088293806 -0.12606159 -0.16000961 -0.15655115
0.027724907 -0.089837074 -0.1262712 0.20563196 -0.07072395 -0.14722323 0.14301445 0.14449729
0.11240439 -0.13206491 0.025232002 0.098276444 -0.14711216 -0.09502189 -0.044497214 -0.09865191
0.058404755 0.100216836 -0.1753534 0.052092787 0.12895499 -0.07402367 -0.13177487 0.19804487
-0.028730486 0.008032151 -0.14382935 -0.0068694283 -0.16446652 0.002892986 -0.07434843 0.13032036
-0.07267186 0.05267346 -0.10379991 -0.01665751 -0.12654743 0.084336944 0.15202703 -0.016401116
0.12769943 -0.090854116 0.13353354 -0.107814245 -0.19430883 -0.16622196 -0.117308944 -0.046427257
-0.17150497 -0.051121183 -0.1541347 0.16215491 0.05514511 -0.08954739 -0.041280184 0.099977374
-0.049209625 0.08192075 -0.1560906 -0.027193077 -0.071247175 -0.06310263 0.18681765 0.0005461857

fc.bias f4 [2]
00000000: 58aa 37bd 61ff 87bd
-0.044840187 -0.066405065
